{"format": "graph-model", "generatedBy": "2.19.0", "convertedBy": "TensorFlow.js Converter v4.22.0", "signature": {"inputs": {"input_layer_8": {"name": "input_layer_8:0", "dtype": "DT_FLOAT", "tensorShape": {"dim": [{"size": "-1"}, {"size": "98"}]}}}, "outputs": {"output_0": {"name": "Identity:0", "dtype": "DT_FLOAT", "tensorShape": {"dim": [{"size": "-1"}, {"size": "6"}]}}}}, "modelTopology": {"node": [{"name": "StatefulPartitionedCall/functional_8_1/dense_60_1/Add/ReadVariableOp", "op": "Const", "attr": {"value": {"tensor": {"dtype": "DT_FLOAT", "tensorShape": {"dim": [{"size": "1"}]}}}, "dtype": {"type": "DT_FLOAT"}}}, {"name": "StatefulPartitionedCall/functional_8_1/dense_59_1/Cast/ReadVariableOp", "op": "Const", "attr": {"dtype": {"type": "DT_FLOAT"}, "value": {"tensor": {"dtype": "DT_FLOAT", "tensorShape": {"dim": [{"size": "128"}, {"size": "64"}]}}}}}, {"name": "StatefulPartitionedCall/functional_8_1/dense_59_1/Add/ReadVariableOp", "op": "Const", "attr": {"dtype": {"type": "DT_FLOAT"}, "value": {"tensor": {"dtype": "DT_FLOAT", "tensorShape": {"dim": [{"size": "64"}]}}}}}, {"name": "StatefulPartitionedCall/functional_8_1/dense_60_1/Cast/ReadVariableOp", "op": "Const", "attr": {"dtype": {"type": "DT_FLOAT"}, "value": {"tensor": {"dtype": "DT_FLOAT", "tensorShape": {"dim": [{"size": "64"}, {"size": "1"}]}}}}}, {"name": "StatefulPartitionedCall/functional_8_1/dense_56_1/Cast/ReadVariableOp", "op": "Const", "attr": {"dtype": {"type": "DT_FLOAT"}, "value": {"tensor": {"dtype": "DT_FLOAT", "tensorShape": {"dim": [{"size": "98"}, {"size": "512"}]}}}}}, {"name": "StatefulPartitionedCall/functional_8_1/dense_56_1/Add/ReadVariableOp", "op": "Const", "attr": {"dtype": {"type": "DT_FLOAT"}, "value": {"tensor": {"dtype": "DT_FLOAT", "tensorShape": {"dim": [{"size": "512"}]}}}}}, {"name": "StatefulPartitionedCall/functional_8_1/batch_normalization_24_1/batchnorm/mul", "op": "Const", "attr": {"dtype": {"type": "DT_FLOAT"}, "value": {"tensor": {"dtype": "DT_FLOAT", "tensorShape": {"dim": [{"size": "512"}]}}}}}, {"name": "StatefulPartitionedCall/functional_8_1/batch_normalization_24_1/batchnorm/sub", "op": "Const", "attr": {"dtype": {"type": "DT_FLOAT"}, "value": {"tensor": {"dtype": "DT_FLOAT", "tensorShape": {"dim": [{"size": "512"}]}}}}}, {"name": "StatefulPartitionedCall/functional_8_1/dense_57_1/Cast/ReadVariableOp", "op": "Const", "attr": {"dtype": {"type": "DT_FLOAT"}, "value": {"tensor": {"dtype": "DT_FLOAT", "tensorShape": {"dim": [{"size": "512"}, {"size": "256"}]}}}}}, {"name": "StatefulPartitionedCall/functional_8_1/dense_57_1/Add/ReadVariableOp", "op": "Const", "attr": {"dtype": {"type": "DT_FLOAT"}, "value": {"tensor": {"dtype": "DT_FLOAT", "tensorShape": {"dim": [{"size": "256"}]}}}}}, {"name": "StatefulPartitionedCall/functional_8_1/batch_normalization_25_1/batchnorm/mul", "op": "Const", "attr": {"dtype": {"type": "DT_FLOAT"}, "value": {"tensor": {"dtype": "DT_FLOAT", "tensorShape": {"dim": [{"size": "256"}]}}}}}, {"name": "StatefulPartitionedCall/functional_8_1/batch_normalization_25_1/batchnorm/sub", "op": "Const", "attr": {"value": {"tensor": {"dtype": "DT_FLOAT", "tensorShape": {"dim": [{"size": "256"}]}}}, "dtype": {"type": "DT_FLOAT"}}}, {"name": "StatefulPartitionedCall/functional_8_1/dense_58_1/Cast/ReadVariableOp", "op": "Const", "attr": {"dtype": {"type": "DT_FLOAT"}, "value": {"tensor": {"dtype": "DT_FLOAT", "tensorShape": {"dim": [{"size": "256"}, {"size": "128"}]}}}}}, {"name": "StatefulPartitionedCall/functional_8_1/dense_58_1/Add/ReadVariableOp", "op": "Const", "attr": {"value": {"tensor": {"dtype": "DT_FLOAT", "tensorShape": {"dim": [{"size": "128"}]}}}, "dtype": {"type": "DT_FLOAT"}}}, {"name": "StatefulPartitionedCall/functional_8_1/batch_normalization_26_1/batchnorm/mul", "op": "Const", "attr": {"dtype": {"type": "DT_FLOAT"}, "value": {"tensor": {"dtype": "DT_FLOAT", "tensorShape": {"dim": [{"size": "128"}]}}}}}, {"name": "StatefulPartitionedCall/functional_8_1/batch_normalization_26_1/batchnorm/sub", "op": "Const", "attr": {"dtype": {"type": "DT_FLOAT"}, "value": {"tensor": {"dtype": "DT_FLOAT", "tensorShape": {"dim": [{"size": "128"}]}}}}}, {"name": "StatefulPartitionedCall/functional_8_1/dense_61_1/Cast/ReadVariableOp", "op": "Const", "attr": {"dtype": {"type": "DT_FLOAT"}, "value": {"tensor": {"dtype": "DT_FLOAT", "tensorShape": {"dim": [{"size": "128"}, {"size": "64"}]}}}}}, {"name": "StatefulPartitionedCall/functional_8_1/dense_61_1/Add/ReadVariableOp", "op": "Const", "attr": {"value": {"tensor": {"dtype": "DT_FLOAT", "tensorShape": {"dim": [{"size": "64"}]}}}, "dtype": {"type": "DT_FLOAT"}}}, {"name": "StatefulPartitionedCall/functional_8_1/dense_62_1/Cast/ReadVariableOp", "op": "Const", "attr": {"value": {"tensor": {"dtype": "DT_FLOAT", "tensorShape": {"dim": [{"size": "64"}, {"size": "6"}]}}}, "dtype": {"type": "DT_FLOAT"}}}, {"name": "StatefulPartitionedCall/functional_8_1/dense_62_1/Add/ReadVariableOp", "op": "Const", "attr": {"value": {"tensor": {"dtype": "DT_FLOAT", "tensorShape": {"dim": [{"size": "6"}]}}}, "dtype": {"type": "DT_FLOAT"}}}, {"name": "StatefulPartitionedCall/functional_8_1/lambda_8_1/Mean/reduction_indices", "op": "Const", "attr": {"dtype": {"type": "DT_INT32"}, "value": {"tensor": {"dtype": "DT_INT32", "tensorShape": {}}}}}, {"name": "input_layer_8", "op": "Placeholder", "attr": {"dtype": {"type": "DT_FLOAT"}, "shape": {"shape": {"dim": [{"size": "-1"}, {"size": "98"}]}}}}, {"name": "StatefulPartitionedCall/functional_8_1/dense_56_1/Relu", "op": "_FusedMatMul", "input": ["input_layer_8", "StatefulPartitionedCall/functional_8_1/dense_56_1/Cast/ReadVariableOp", "StatefulPartitionedCall/functional_8_1/dense_56_1/Add/ReadVariableOp"], "device": "/device:CPU:0", "attr": {"transpose_b": {"b": false}, "num_args": {"i": "1"}, "fused_ops": {"list": {"s": ["Qmlhc0FkZA==", "UmVsdQ=="]}}, "leakyrelu_alpha": {"f": 0.2}, "transpose_a": {"b": false}, "epsilon": {"f": 0.0}, "T": {"type": "DT_FLOAT"}}}, {"name": "StatefulPartitionedCall/functional_8_1/batch_normalization_24_1/batchnorm/mul_1", "op": "Mul", "input": ["StatefulPartitionedCall/functional_8_1/dense_56_1/Relu", "StatefulPartitionedCall/functional_8_1/batch_normalization_24_1/batchnorm/mul"], "attr": {"T": {"type": "DT_FLOAT"}}}, {"name": "StatefulPartitionedCall/functional_8_1/batch_normalization_24_1/batchnorm/add_1", "op": "AddV2", "input": ["StatefulPartitionedCall/functional_8_1/batch_normalization_24_1/batchnorm/mul_1", "StatefulPartitionedCall/functional_8_1/batch_normalization_24_1/batchnorm/sub"], "attr": {"T": {"type": "DT_FLOAT"}}}, {"name": "StatefulPartitionedCall/functional_8_1/dense_57_1/Relu", "op": "_FusedMatMul", "input": ["StatefulPartitionedCall/functional_8_1/batch_normalization_24_1/batchnorm/add_1", "StatefulPartitionedCall/functional_8_1/dense_57_1/Cast/ReadVariableOp", "StatefulPartitionedCall/functional_8_1/dense_57_1/Add/ReadVariableOp"], "device": "/device:CPU:0", "attr": {"transpose_a": {"b": false}, "transpose_b": {"b": false}, "fused_ops": {"list": {"s": ["Qmlhc0FkZA==", "UmVsdQ=="]}}, "epsilon": {"f": 0.0}, "leakyrelu_alpha": {"f": 0.2}, "num_args": {"i": "1"}, "T": {"type": "DT_FLOAT"}}}, {"name": "StatefulPartitionedCall/functional_8_1/batch_normalization_25_1/batchnorm/mul_1", "op": "Mul", "input": ["StatefulPartitionedCall/functional_8_1/dense_57_1/Relu", "StatefulPartitionedCall/functional_8_1/batch_normalization_25_1/batchnorm/mul"], "attr": {"T": {"type": "DT_FLOAT"}}}, {"name": "StatefulPartitionedCall/functional_8_1/batch_normalization_25_1/batchnorm/add_1", "op": "AddV2", "input": ["StatefulPartitionedCall/functional_8_1/batch_normalization_25_1/batchnorm/mul_1", "StatefulPartitionedCall/functional_8_1/batch_normalization_25_1/batchnorm/sub"], "attr": {"T": {"type": "DT_FLOAT"}}}, {"name": "StatefulPartitionedCall/functional_8_1/dense_58_1/Relu", "op": "_FusedMatMul", "input": ["StatefulPartitionedCall/functional_8_1/batch_normalization_25_1/batchnorm/add_1", "StatefulPartitionedCall/functional_8_1/dense_58_1/Cast/ReadVariableOp", "StatefulPartitionedCall/functional_8_1/dense_58_1/Add/ReadVariableOp"], "device": "/device:CPU:0", "attr": {"transpose_a": {"b": false}, "transpose_b": {"b": false}, "leakyrelu_alpha": {"f": 0.2}, "T": {"type": "DT_FLOAT"}, "num_args": {"i": "1"}, "fused_ops": {"list": {"s": ["Qmlhc0FkZA==", "UmVsdQ=="]}}, "epsilon": {"f": 0.0}}}, {"name": "StatefulPartitionedCall/functional_8_1/batch_normalization_26_1/batchnorm/mul_1", "op": "Mul", "input": ["StatefulPartitionedCall/functional_8_1/dense_58_1/Relu", "StatefulPartitionedCall/functional_8_1/batch_normalization_26_1/batchnorm/mul"], "attr": {"T": {"type": "DT_FLOAT"}}}, {"name": "StatefulPartitionedCall/functional_8_1/batch_normalization_26_1/batchnorm/add_1", "op": "AddV2", "input": ["StatefulPartitionedCall/functional_8_1/batch_normalization_26_1/batchnorm/mul_1", "StatefulPartitionedCall/functional_8_1/batch_normalization_26_1/batchnorm/sub"], "attr": {"T": {"type": "DT_FLOAT"}}}, {"name": "StatefulPartitionedCall/functional_8_1/dense_61_1/Relu", "op": "_FusedMatMul", "input": ["StatefulPartitionedCall/functional_8_1/batch_normalization_26_1/batchnorm/add_1", "StatefulPartitionedCall/functional_8_1/dense_61_1/Cast/ReadVariableOp", "StatefulPartitionedCall/functional_8_1/dense_61_1/Add/ReadVariableOp"], "device": "/device:CPU:0", "attr": {"fused_ops": {"list": {"s": ["Qmlhc0FkZA==", "UmVsdQ=="]}}, "T": {"type": "DT_FLOAT"}, "transpose_b": {"b": false}, "leakyrelu_alpha": {"f": 0.2}, "num_args": {"i": "1"}, "transpose_a": {"b": false}, "epsilon": {"f": 0.0}}}, {"name": "StatefulPartitionedCall/functional_8_1/dense_59_1/Relu", "op": "_FusedMatMul", "input": ["StatefulPartitionedCall/functional_8_1/batch_normalization_26_1/batchnorm/add_1", "StatefulPartitionedCall/functional_8_1/dense_59_1/Cast/ReadVariableOp", "StatefulPartitionedCall/functional_8_1/dense_59_1/Add/ReadVariableOp"], "device": "/device:CPU:0", "attr": {"fused_ops": {"list": {"s": ["Qmlhc0FkZA==", "UmVsdQ=="]}}, "num_args": {"i": "1"}, "leakyrelu_alpha": {"f": 0.2}, "transpose_b": {"b": false}, "T": {"type": "DT_FLOAT"}, "transpose_a": {"b": false}, "epsilon": {"f": 0.0}}}, {"name": "StatefulPartitionedCall/functional_8_1/dense_62_1/Add", "op": "_FusedMatMul", "input": ["StatefulPartitionedCall/functional_8_1/dense_61_1/Relu", "StatefulPartitionedCall/functional_8_1/dense_62_1/Cast/ReadVariableOp", "StatefulPartitionedCall/functional_8_1/dense_62_1/Add/ReadVariableOp"], "device": "/device:CPU:0", "attr": {"leakyrelu_alpha": {"f": 0.2}, "epsilon": {"f": 0.0}, "transpose_b": {"b": false}, "num_args": {"i": "1"}, "T": {"type": "DT_FLOAT"}, "transpose_a": {"b": false}, "fused_ops": {"list": {"s": ["Qmlhc0FkZA=="]}}}}, {"name": "StatefulPartitionedCall/functional_8_1/dense_60_1/MatMul", "op": "MatMul", "input": ["StatefulPartitionedCall/functional_8_1/dense_59_1/Relu", "StatefulPartitionedCall/functional_8_1/dense_60_1/Cast/ReadVariableOp"], "device": "/device:CPU:0", "attr": {"transpose_b": {"b": false}, "grad_a": {"b": false}, "grad_b": {"b": false}, "T": {"type": "DT_FLOAT"}, "transpose_a": {"b": false}}}, {"name": "StatefulPartitionedCall/functional_8_1/lambda_8_1/Mean", "op": "Mean", "input": ["StatefulPartitionedCall/functional_8_1/dense_62_1/Add", "StatefulPartitionedCall/functional_8_1/lambda_8_1/Mean/reduction_indices"], "attr": {"keep_dims": {"b": true}, "T": {"type": "DT_FLOAT"}, "Tidx": {"type": "DT_INT32"}}}, {"name": "StatefulPartitionedCall/functional_8_1/add_8_1/ArithmeticOptimizer/AddOpsRewrite_Internal_0_Add", "op": "AddV2", "input": ["StatefulPartitionedCall/functional_8_1/dense_60_1/Add/ReadVariableOp", "StatefulPartitionedCall/functional_8_1/dense_60_1/MatMul"], "attr": {"_grappler_ArithmeticOptimizer_AddOpsRewriteStage": {"b": true}, "T": {"type": "DT_FLOAT"}}}, {"name": "StatefulPartitionedCall/functional_8_1/lambda_8_1/sub", "op": "Sub", "input": ["StatefulPartitionedCall/functional_8_1/dense_62_1/Add", "StatefulPartitionedCall/functional_8_1/lambda_8_1/Mean"], "attr": {"T": {"type": "DT_FLOAT"}}}, {"name": "StatefulPartitionedCall/functional_8_1/add_8_1/ArithmeticOptimizer/AddOpsRewrite_Add", "op": "AddV2", "input": ["StatefulPartitionedCall/functional_8_1/add_8_1/ArithmeticOptimizer/AddOpsRewrite_Internal_0_Add", "StatefulPartitionedCall/functional_8_1/lambda_8_1/sub"], "attr": {"_grappler_ArithmeticOptimizer_AddOpsRewriteStage": {"b": true}, "T": {"type": "DT_FLOAT"}}}, {"name": "Identity", "op": "Identity", "input": ["StatefulPartitionedCall/functional_8_1/add_8_1/ArithmeticOptimizer/AddOpsRewrite_Add"], "attr": {"T": {"type": "DT_FLOAT"}}}], "library": {}, "versions": {"producer": 2129}}, "weightsManifest": [{"paths": ["group1-shard1of1.bin"], "weights": [{"name": "StatefulPartitionedCall/functional_8_1/dense_60_1/Add/ReadVariableOp", "shape": [1], "dtype": "float32"}, {"name": "StatefulPartitionedCall/functional_8_1/dense_59_1/Cast/ReadVariableOp", "shape": [128, 64], "dtype": "float32"}, {"name": "StatefulPartitionedCall/functional_8_1/dense_59_1/Add/ReadVariableOp", "shape": [64], "dtype": "float32"}, {"name": "StatefulPartitionedCall/functional_8_1/dense_60_1/Cast/ReadVariableOp", "shape": [64, 1], "dtype": "float32"}, {"name": "StatefulPartitionedCall/functional_8_1/dense_56_1/Cast/ReadVariableOp", "shape": [98, 512], "dtype": "float32"}, {"name": "StatefulPartitionedCall/functional_8_1/dense_56_1/Add/ReadVariableOp", "shape": [512], "dtype": "float32"}, {"name": "StatefulPartitionedCall/functional_8_1/batch_normalization_24_1/batchnorm/mul", "shape": [512], "dtype": "float32"}, {"name": "StatefulPartitionedCall/functional_8_1/batch_normalization_24_1/batchnorm/sub", "shape": [512], "dtype": "float32"}, {"name": "StatefulPartitionedCall/functional_8_1/dense_57_1/Cast/ReadVariableOp", "shape": [512, 256], "dtype": "float32"}, {"name": "StatefulPartitionedCall/functional_8_1/dense_57_1/Add/ReadVariableOp", "shape": [256], "dtype": "float32"}, {"name": "StatefulPartitionedCall/functional_8_1/batch_normalization_25_1/batchnorm/mul", "shape": [256], "dtype": "float32"}, {"name": "StatefulPartitionedCall/functional_8_1/batch_normalization_25_1/batchnorm/sub", "shape": [256], "dtype": "float32"}, {"name": "StatefulPartitionedCall/functional_8_1/dense_58_1/Cast/ReadVariableOp", "shape": [256, 128], "dtype": "float32"}, {"name": "StatefulPartitionedCall/functional_8_1/dense_58_1/Add/ReadVariableOp", "shape": [128], "dtype": "float32"}, {"name": "StatefulPartitionedCall/functional_8_1/batch_normalization_26_1/batchnorm/mul", "shape": [128], "dtype": "float32"}, {"name": "StatefulPartitionedCall/functional_8_1/batch_normalization_26_1/batchnorm/sub", "shape": [128], "dtype": "float32"}, {"name": "StatefulPartitionedCall/functional_8_1/dense_61_1/Cast/ReadVariableOp", "shape": [128, 64], "dtype": "float32"}, {"name": "StatefulPartitionedCall/functional_8_1/dense_61_1/Add/ReadVariableOp", "shape": [64], "dtype": "float32"}, {"name": "StatefulPartitionedCall/functional_8_1/dense_62_1/Cast/ReadVariableOp", "shape": [64, 6], "dtype": "float32"}, {"name": "StatefulPartitionedCall/functional_8_1/dense_62_1/Add/ReadVariableOp", "shape": [6], "dtype": "float32"}, {"name": "StatefulPartitionedCall/functional_8_1/lambda_8_1/Mean/reduction_indices", "shape": [], "dtype": "int32"}]}]}